…
rm'))model.add(Conv2D(64, (3, 3), activation='relu', kernel_initializer='he_uniform'))model.add(MaxPool2D((2, 2)))model.add(Flatten())model.add(Dense(100, activation='relu', kernel_initializer='he_uniform'))model.add(Dense(10, activation='softmax'))#opt = Adam(lr=0.01)opt = SGD(lr=0.01, momentum=0.9)model.compile(optimizer=opt, loss='categorical_crossentropy', metrics=['accuracy'])model.summary()Model: \"sequential\"_________________________________________________________________Layer (type) Output Shape Param # =================================================================conv2d (Conv2D) (None, 26, 26, 32) 320 _________________________________________________________________max_pooling2d (MaxPooling2D) (None, 13, 13, 32) 0 _________________________________________________________________conv2d_1 (Conv2D) (None, 11, 11, 64) 18496 _________________________________________________________________conv2d_2 (Conv2D) (None, 9, 9, 64) 36928 _________________________________________________________________max_pooling2d_1 (MaxPooling2 (None, 4, 4, 64) 0 _________________________________________________________________flatten (Flatten) (None, 1024) 0 _________________________________________________________________dense (Dense) (None, 100) 102500 _________________________________________________________________dense_1 (Dense) (None, 10) 1010 =================================================================Total params: 159,254Trainable params: 159,254Non-trainable params: 0_________________________________________________________________Train the modelhistory = model.fit(X_train, Y_train, epochs=10, batch_size=32, validation_data=(X_val, Y_val), verbose =1)Epoch 1/101688/1688 [==============================] - 28s 17ms/step - loss: 0
…
